weights/portrait-seg.onnx (onnx, 419969 bytes, 344 tensors)

820 f4 [12, 1, 1]
000000 ab e4 5a 3f 47 41 1d 3f b3 2e f7 3d 6c 9f 01 00
       0.8550517 0.6142773 0.12069454 1.49025e-40
000010 b7 5c a6 3f d4 50 4a bf f1 2d 4a 3f 05 a1 8a 3f
       1.2997044 -0.79029584 0.7897635 1.0830389
000020 48 63 06 80 78 db 31 c0 b2 d5 45 3f b2 82 02 80
       -5.86628e-40 -2.7790203 0.772792 -2.30556e-40

821 f4 [16, 1, 1]
000000 94 bd 07 3f d6 ba da 3e 38 66 7b 3e f0 cb 53 3f
       0.5302365 0.4272067 0.24550712 0.8273306
000010 76 58 5d 3e 3f c7 82 3f b6 ad 23 3f 13 06 08 3f
       0.21615776 1.0217055 0.63936937 0.5313427
000020 5a b9 13 3d 9e fd 12 3f ab 1f 33 3f 23 44 8e be
       0.036065437 0.5741824 0.69970196 -0.2778636
000030 45 c5 64 3f e2 56 6b 3f 92 5b 7e bf 76 2c 5b 3b
       0.8936351 0.9192945 -0.99358475 0.0033443249

822 f4 [24, 1, 1]
000000 9c 25 44 3f d7 0f 80 bf a0 11 83 bf 94 b0 60 bf
       0.7661989 -1.0004834 -1.0239754 -0.87769437
000010 2d d5 0a bf 44 14 72 bf 01 7c 81 bf 80 fe 1f 3f
       -0.5423153 -0.9456217 -1.0115968 0.6249771
000020 1f f4 6b bf d8 07 39 be 7a a4 88 bf af 02 77 3e
       -0.92169374 -0.18069398 -1.0675194 0.24122117
000030 2a bf 55 bf c9 1a 9a bf 55 b5 26 3e 32 31 6d bf
       -0.8349482 -1.2039424 0.1628011 -0.9265319
000040 35 5e 6f bf 06 b5 c3 3e 01 b8 65 bf 90 71 79 bf
       -0.93503124 0.38224047 -0.8973389 -0.9743891
000050 d8 5c 3d bf a2 7b e1 3d df af 05 3f 7e f9 a1 3e
       -0.73969793 0.11009909 0.52221483 0.3163566

823 f4 [24, 1, 1]
000000 31 05 c4 be ce 20 6a bf 59 eb 62 bf 19 fc 41 bf
       -0.3828521 -0.91456306 -0.8864036 -0.75775295
000010 7d e5 86 bf 2d 2d eb 3e b1 0f 81 bf b9 6a 30 bf
       -1.0538784 0.45932904 -1.0082914 -0.68912846
000020 d6 3b 88 3e f1 67 3e bf e0 39 75 bf da 98 8d 3e
       0.2660815 -0.7437735 -0.95791435 0.2765568
000030 a5 36 80 bf 7a 53 5f bf 0b 15 c0 3e 9d 5c ca 3e
       -1.0016676 -0.8723675 0.37516055 0.39523783
000040 9a e3 f0 be 15 e5 12 3f a6 9a 68 bf 28 51 50 bf
       -0.47048646 0.573808 -0.90860975 -0.81373835
000050 eb aa eb be 24 c0 1d be fb 55 76 bf fc 46 22 3e
       -0.46028838 -0.15405327 -0.96224946 0.15847391

824 f4 [48, 1, 1]
000000 04 ba f2 3d d9 3b 23 3e 60 b7 00 3e f3 03 86 3e
       0.11851886 0.15940799 0.12569952 0.26174888
000010 63 0f aa 3e 47 ef 23 bd 8c 9e 09 3e e0 7e 62 3d
       0.33214864 -0.040023115 0.13439387 0.05529678
000020 ce 8d b4 3e e8 27 9f 3e 38 b9 0c 3a b4 98 f4 3d
       0.35264438 0.31085134 0.0005368176 0.11943188
000030 20 4c d8 3d 06 f4 17 bd 11 b6 a9 3e ca 5a 2d 3f
       0.10561395 -0.037097953 0.33146718 0.6771666
000040 34 a1 3c 3e 3b 68 46 3d 36 db 34 bf 4c 68 10 80
       0.18420869 0.048439246 -0.7064699 -1.506783e-39
000050 49 e7 8f be 8d 94 c9 3e df 91 e0 3d 1f 50 fb 3e
       -0.28106144 0.39371148 0.10965323 0.49084565
000060 7a 73 5a be df 29 67 be ab 72 48 3e 5a 07 53 bf
       -0.21333113 -0.22574566 0.19574992 -0.8243309
000070 a8 27 0b bf c9 e7 e8 3d df 65 eb be de c6 2c be
       -0.54357386 0.113723345 -0.4597616 -0.16872737
000080 1a 6e b3 3e fb eb 2d bf 97 8a 60 3f 1e ee 18 bf
       0.35044938 -0.679382 0.8771147 -0.5973834
000090 a8 c7 95 bc 99 ca 15 bf e4 a7 83 3d 32 25 cb 3d
       -0.01828368 -0.58512264 0.06428507 0.09919204
0000a0 db c0 9f 3b e7 3f 00 bf 4e f1 b5 3e 01 84 0c bf
       0.004875285 -0.5009751 0.35535663 -0.5488892
0000b0 ec 57 c9 be eb 93 8d be 0c 7c 89 bd 0b c2 ac 3e
       -0.39324892 -0.27651915 -0.06713113 0.33741793

825 f4 [24, 1, 1]
000000 43 9d 95 3f ef 58 33 3e ad e3 6b bf 78 f0 b0 3e
       1.1688617 0.17514394 -0.9214428 0.34558463
000010 1c 5f 48 bf 11 6e dc 3e 5f b3 96 bd 82 9c bc 3d
       -0.78270125 0.43052724 -0.07358431 0.09209539
000020 65 c3 7a be 89 94 b7 3f 51 fb a3 3f 78 c6 44 bf
       -0.244886 1.4342204 1.2811071 -0.7686534
000030 dc b5 26 bf 84 88 78 bf 6e ff 30 3f 85 70 43 3f
       -0.65121245 -0.97083306 0.69139755 0.76343566
000040 dd 8d 7c bf 03 d7 49 bf dd f0 72 bf 13 a7 9b 3e
       -0.98653966 -0.78843707 -0.9489878 0.30400905
000050 b0 40 aa 3f af 02 ca be 66 f7 e0 be aa 70 c1 3e
       1.3300991 -0.39455172 -0.4393875 0.37781268

826 f4 [24, 1, 1]
000000 5c 69 fa 3e f5 3d 94 3e 97 43 62 bf 06 a1 13 bf
       0.48908508 0.2895352 -0.88384384 -0.5766758
000010 24 01 44 3f 56 46 7f bf d7 90 5b bf 3b c4 a2 3f
       0.7656424 -0.997167 -0.85767883 1.2716135
000020 04 41 80 bf 51 f8 41 be 30 f9 24 3c ce 8c bc ba
       -1.0019841 -0.18942381 0.010069177 -0.0014385225
000030 af 91 60 bf 89 51 84 bf aa ba 41 be a0 08 6d bf
       -0.87722296 -1.0337383 -0.18918863 -0.92591286
000040 3d e4 07 3f 90 eb 55 bf 90 bf 7c bf 59 63 8d be
       0.5308264 -0.83562565 -0.987298 -0.2761486
000050 d2 3c 63 bf 11 f1 cf bb 92 1d 81 bf b3 7c b2 bd
       -0.8876468 -0.006345876 -1.0087149 -0.08715191

827 f4 [48, 1, 1]
000000 c8 08 b5 3d 7e e4 a1 bd c7 f1 76 bd 3a cd 72 bd
       0.088395655 -0.079049096 -0.06028917 -0.05927775
000010 7d 1d 3b 3e 50 43 26 bf df 2d 71 be 0b cd 3d 3f
       0.18272968 -0.6494646 -0.23552655 0.74140996
000020 15 ed ba be f5 a0 c0 be ab 1b 43 3e 55 25 89 be
       -0.36509004 -0.376228 0.19053523 -0.26786295
000030 4f 25 bd be 36 37 5a 3e 57 f0 17 bd 10 80 20 3d
       -0.36942527 0.21310124 -0.03709444 0.03918463
000040 a9 be 25 3b c4 4a 6b be d4 5c 38 bd 66 be 87 3d
       0.0025290644 -0.2297774 -0.045010403 0.066281125
000050 6e 56 0a bf 80 15 21 3f b9 81 c7 bd f7 39 c5 bc
       -0.5403813 0.6292343 -0.097415395 -0.024075491
000060 62 b1 54 be 5e a8 1d be 6f 01 b5 bd ba ed 0f 3f
       -0.20770791 -0.15396258 -0.08838164 0.56222117
000070 80 b6 e8 3a 8e e3 5d bd 62 99 c6 3e bc a9 c2 3e
       0.0017754585 -0.05417209 0.38788897 0.38020122
000080 11 cd 23 3f ab 32 57 be 81 4f be bd 51 85 39 3e
       0.6398478 -0.21015422 -0.09292508 0.18117262
000090 7f 0e 05 3f 2d de 31 3f dc 4c d7 bc de 95 11 bf
       0.51975244 0.6947964 -0.026281767 -0.56869304
0000a0 39 52 cd 3d 26 76 af bd d0 fd 89 3e 19 94 a4 3e
       0.10025448 -0.08567457 0.26951456 0.3214424
0000b0 47 3f 08 3f c8 1e 48 3f 10 e6 a2 3e 31 64 02 3e
       0.53221554 0.7817197 0.3181615 0.12733532

828 f4 [64, 1, 1]
000000 df 2d 58 bd c0 95 78 bf f7 ff c8 be 8d 7e c0 be
       -0.05277812 -0.971035 -0.39257786 -0.3759655
000010 88 7d c0 3e 5a 3b a7 3e 8a a4 0c bf 1a 0e 66 3e
       0.37595773 0.3266247 -0.54938567 0.22466317
000020 60 6d 1d 3d 13 97 7b bf e9 d8 23 bf 57 79 6d bf
       0.038434386 -0.98277396 -0.64002854 -0.92763275
000030 9a 3d 54 3e 5d b6 9b 3e 11 04 30 3f 22 57 15 80
       0.20726624 0.3041257 0.68756205 -1.959803e-39
000040 df 77 a5 3a 03 8f d4 3d 3e 54 67 3e 3e 12 26 3d
       0.0012624225 0.1037884 0.2259073 0.04054474
000050 91 23 49 3f 7c 7a 35 3f 65 48 da 3e 97 48 96 3f
       0.78569895 0.7089002 0.42633358 1.1740903
000060 6d 58 a9 3e 3f a6 b3 3d c0 76 0b bd 49 13 ae 3e
       0.33075276 0.08771943 -0.034048796 0.33999088
000070 e3 d1 9e 3e 00 91 5f 3f 90 57 ca 3e b6 65 ab 3e
       0.31019506 0.8733063 0.3951993 0.33476037
000080 2f b8 04 3f 2c 8b 0f 3f a4 9f 80 3e e2 e0 f7 3e
       0.5184354 0.56071734 0.25121796 0.4841376
000090 b4 65 c8 3e 74 df 07 3f ba 08 c5 3e be 7d a7 3e
       0.39140093 0.5307534 0.3848322 0.3271312
0000a0 ac a5 8c 3e ea 24 12 3f 09 55 8d 3f af e1 86 3f
       0.27470148 0.57087576 1.1041576 1.0537623
0000b0 63 f6 d5 38 73 a6 64 3e 50 52 e2 3e c0 e8 12 3f
       0.000102025246 0.2232912 0.44203424 0.573864
0000c0 05 1c 8c 3f b7 74 21 3e 38 5e 87 3e 2b c8 10 3f
       1.0946051 0.1576718 0.2643907 0.5655543
0000d0 1f 90 a1 3f 22 3d 2b 3f 5a ce ab 3e 6f 89 c8 3e
       1.2622107 0.66890156 0.3355587 0.39167354
0000e0 45 07 00 3f 23 ef fd 3d be 7a 4b 3f fc f8 61 3f
       0.5001109 0.12399127 0.79484165 0.88270545
0000f0 b6 66 30 3f c5 a4 02 3f ac b0 4b 3f d0 a7 ea 3e
       0.68906724 0.5103267 0.79566455 0.45831156

829 f4 [48, 1, 1]
000000 6a a9 4c be 65 ae af 3e a0 59 1b bf ba 36 3d 3e
       -0.19986501 0.3431274 -0.6068363 0.18477908
000010 56 90 86 be f5 23 a8 be 8b 88 bb 3e 7e 02 7f be
       -0.26281995 -0.32839933 0.36627612 -0.24903294
000020 39 3e 09 3e 8e 3f ba 3d 15 80 7a 3e 42 5f 63 3f
       0.13402642 0.09094153 0.24462922 0.88817227
000030 b6 b0 2f bf 2f f3 e1 3e a2 73 a8 be 0c fd 55 3e
       -0.68629014 0.44130847 -0.3290072 0.20897311
000040 56 ac 43 3f 1a da 92 3e de 7f 63 3f a0 3e 39 3f
       0.7643484 0.28682023 0.88866985 0.72361183
000050 de 6e 9f be 6a ee a5 3d 98 82 86 be a5 d4 26 3e
       -0.31139272 0.081021145 -0.2627151 0.16292055
000060 ed b6 a4 3e 1d 0d 5a 3e 3f 78 00 be 24 91 f5 3e
       0.3217081 0.21294065 -0.1254587 0.47962296
000070 8a e9 6a bf a2 df 2f 3e 74 29 35 3e a0 96 53 3d
       -0.917626 0.17175153 0.17691594 0.05165732
000080 5d 62 fc bd 9e 39 f7 3d 91 9f 0d bf e4 ce f1 3e
       -0.12323449 0.120715365 -0.55321604 0.47228158
000090 fd 18 c8 bd 51 b0 04 3e ba c2 18 bf 37 88 25 3f
       -0.09770391 0.12957884 -0.5967213 0.6466097
0000a0 be 99 3e be d6 22 fe 3e ac 86 f6 be c8 dc 34 be
       -0.18613335 0.49635953 -0.4814962 -0.17662346
0000b0 37 b1 db be c0 f4 2b 3e 3f 39 1a bf a5 b5 55 3e
       -0.42908642 0.16792583 -0.602436 0.20870073

830 f4 [48, 1, 1]
000000 9f d8 32 3e 85 ce 60 bf 72 26 62 3f 03 5c 32 bf
       0.17465447 -0.87815124 0.8833991 -0.6967165
000010 47 d8 83 bf 53 4a f1 be 9c 9c 60 bf 7a 87 35 bf
       -1.0300378 -0.47127017 -0.87738967 -0.70909846
000020 ad 80 55 3f ea 0c ec be a7 c7 4f bf 1b 6e df be
       0.8339947 -0.46103603 -0.8116402 -0.4363869
000030 67 bb 44 3e a2 09 3c 3f e8 a7 16 3f 2f 5f 33 3f
       0.19212113 0.734522 0.58849955 0.70067114
000040 61 43 26 be 0e 9e 47 bf 08 8b 3f bf 12 e7 10 bf
       -0.1623664 -0.7797555 -0.7482152 -0.56602585
000050 db 78 93 3f 54 78 f2 bc 20 17 85 3c db d3 f6 3e
       1.1521257 -0.029598393 0.016246378 0.48208508
000060 6b 4d a7 be 97 b2 cb bd fb bc 53 3f d8 fd 3f bf
       -0.32676253 -0.09946173 0.82710236 -0.7499671
000070 e7 18 fe 3d d4 56 70 be fe cf 11 3e 8a e9 5b 3f
       0.124070935 -0.23470622 0.14239499 0.8590323
000080 c9 f3 48 bf fd 9b 1d 3f 6a 9d 87 3f e3 3f 26 3f
       -0.78496987 0.61566144 1.0594914 0.64941233
000090 3f a4 29 3e 92 62 1c 3f 87 9e 81 3f 5c 81 3c bf
       0.16566561 0.61087906 1.0126504 -0.73634887
0000a0 b7 70 28 bf 71 1c 0d bf 87 65 0d bf 21 aa 6e 3f
       -0.6579699 -0.55121523 -0.55233043 0.93228346
0000b0 8d 56 40 bf d0 11 5c 3e 32 19 77 bf 63 bb e5 3e
       -0.75132066 0.2149117 -0.9652282 0.44869527

831 f4 [48, 1, 1]
000000 8d 50 05 3e 6e bc 72 bf 4b aa 6a 3f 5b ea db 3e
       0.13019009 -0.9481877 0.91666096 0.42952237
000010 4c 54 60 bf 53 e1 d3 3e e9 fd 41 bf 15 06 5e bf
       -0.87628627 0.41382846 -0.7577806 -0.8672803
000020 af 85 b3 bd 27 a7 30 bf 41 46 31 bf 48 38 5e bf
       -0.087657325 -0.69005054 -0.69247824 -0.8680463
000030 9a 7c 95 3e 25 89 73 3e ab 30 0d 3f 3f 47 7a 3c
       0.29196626 0.23782785 0.55152386 0.015275775
000040 0b 18 88 bf 61 98 57 bf bf c9 5c bf 54 77 30 bf
       -1.0632337 -0.84216887 -0.8624534 -0.6893208
000050 05 db 22 bf d0 72 eb 3d 73 5c 14 bf 84 29 86 bf
       -0.6361545 0.11496508 -0.57953566 -1.048142
000060 f1 33 43 bf 73 a4 8a 3c bc 0b 12 bf 3f a1 a3 3e
       -0.7625113 0.016924119 -0.57049155 0.31958959
000070 a5 d6 79 bf 01 f6 13 3f 2d b0 06 be 35 97 63 bf
       -0.97593147 0.5779725 -0.13153143 -0.889026
000080 36 9a 45 3f b8 a6 b9 3d e0 74 fb bd d3 fc e8 3c
       0.7718843 0.09065002 -0.122781515 0.028440868
000090 f0 ef 04 3f 46 70 25 3f 47 05 82 bd c2 74 83 bd
       0.51928616 0.6462444 -0.06348663 -0.06418754
0000a0 63 e0 64 bf b2 7f 36 3f 72 b4 4d bf 50 fe 2e 3f
       -0.89404887 0.712886 -0.8035346 0.683568
0000b0 2c cd 5d bf c9 3f 38 3f d8 af 8c 3f 52 d0 16 3f
       -0.8664119 0.7197233 1.0991163 0.5891162

832 f4 [96, 1, 1]
000000 a7 a9 03 3e 15 3a 0b bf 42 49 cb be 00 c3 d8 3d
       0.12857686 -0.543855 -0.3970433 0.10584068
000010 a6 07 6a 3e cc b5 5d 3e 07 b7 a5 3e a7 56 bd 3e
       0.2285448 0.21651381 0.323662 0.36980173
000020 b9 0a 6f 3e cb 55 d2 bc 36 c2 b3 bd 68 77 f6 3d
       0.23343934 -0.025675675 -0.08777277 0.12034494
000030 6f fb 55 3e df 39 b6 3f 0c 94 f8 be d2 dd 8a be
       0.20896696 1.4236411 -0.4855045 -0.2712236
000040 02 ec 94 bd 3f 57 25 bf 03 b2 aa 3e 69 cb 20 bf
       -0.072715774 -0.6458625 0.33338937 -0.6281038
000050 20 cd 51 be c9 03 1a bf 3e f3 fb be fa 89 17 3e
       -0.20488405 -0.60162026 -0.49209017 0.14798728
000060 ef b2 ad 3d 46 fb c7 be e0 f8 3c 3d 1d 1f 84 3e
       0.084813945 -0.39058894 0.046135783 0.25804988
000070 53 3d 4a 3d 56 b3 f3 bd f3 0e f8 be 8b 78 d7 3c
       0.04937489 -0.1189944 -0.48448905 0.026302597
000080 ad 60 54 3e 94 02 94 3f 81 15 0f 3e cc 91 9e be
       0.20740004 1.1563287 0.13973047 -0.3097061
000090 48 be 8e 3d 55 13 fc bc 65 c0 7f 3d bc 48 86 3f
       0.06969887 -0.030770937 0.06243934 1.0490947
0000a0 dd 5c d1 bc 9e 47 59 be af 45 b2 3c 04 8f 89 3e
       -0.025556976 -0.21218726 0.021761743 0.26866925
0000b0 69 71 0e be 9c 89 88 be ca 1c 8f 3d 8e c7 f2 3b
       -0.1391045 -0.26667488 0.06987913 0.0074090427
0000c0 51 c9 36 3e 71 9f b2 3c 60 fb 85 3d cc 36 35 3e
       0.17850234 0.021804543 0.065420866 0.17696685
0000d0 b6 b0 8d be 48 96 4b be ad 21 0e 3e e6 07 9c be
       -0.27673882 -0.19881546 0.13880034 -0.30474776
0000e0 dd 03 8e bd a4 4b 30 bf 75 2b 12 3f e4 41 29 3d
       -0.069343306 -0.6886542 0.5709756 0.041322604
0000f0 d6 e6 95 be b8 76 96 be af 47 bf bd fa 3c 05 28
       -0.29277676 -0.2938745 -0.093398444 7.396205e-15
000100 f2 7e c7 3c 79 af 37 3e 0d 3a e9 3e d1 45 58 be
       0.024352524 0.17938031 0.45552102 -0.21120383
000110 49 c1 22 be cf 6f f4 3e 88 9f 64 be 7a 58 f7 bd
       -0.15894045 0.47741553 -0.22326481 -0.120774224
000120 cc 20 9f bd 5b fb 2d 3e 36 a4 d0 be cd c9 bd 3e
       -0.077699274 0.16990416 -0.40750283 0.37068024
000130 a6 b7 11 bc 5e aa 30 be 00 2c c4 be 55 c1 fa bb
       -0.008893883 -0.1725249 -0.3831482 -0.0076524415
000140 ea 58 19 bf 3c 5d cf be 0c 2b 8e bc e6 28 e2 be
       -0.599013 -0.4050082 -0.01735451 -0.44171828
000150 fc 6a 86 be d0 a5 8b bd eb d6 36 bf ce 43 b2 bd
       -0.26253498 -0.068187356 -0.7142169 -0.08704339
000160 f3 3a 8c 3e ac 29 0e be cb a7 00 be a9 a3 64 be
       0.27388725 -0.13883084 -0.12564008 -0.22328056
000170 d4 71 a8 be 81 81 2c bf 0a 83 7a 3e 8e 87 1c be
       -0.32899344 -0.6738511 0.2446405 -0.15286085

833 f4 [48, 1, 1]
000000 61 5d ab be 89 d5 97 3f 0b 1a a3 be b2 c1 be bd
       -0.3346968 1.1862041 -0.31855807 -0.09314288
000010 f0 44 de 3e 10 06 24 be a9 5e 23 bf d5 db 89 be
       0.4341197 -0.16017938 -0.63816315 -0.2692553
000020 74 a8 03 3f 9a 85 83 3e dd d6 c8 3e ec a0 76 be
       0.51428914 0.25687867 0.39226428 -0.24084824
000030 c3 a9 ad bd 50 25 aa be 8c a4 88 3e dd 45 46 3f
       -0.08479645 -0.33231592 0.2668804 0.7745035
000040 a5 df 14 3f 91 82 12 3f 79 39 e4 be de 0b f2 3e
       0.58153754 0.5723048 -0.44575098 0.4727468
000050 a7 ec 3a 3e 5b 52 8e be 1a ca 22 bf 95 16 8d bd
       0.18254338 -0.27797207 -0.6358963 -0.06889073
000060 cf f7 07 bf 21 47 5d bd 66 09 35 bf 2e d4 61 3e
       -0.531125 -0.054022912 -0.70717466 0.22053596
000070 0f 71 d0 be d1 14 80 be 60 bd 11 3f 72 20 a6 be
       -0.40711257 -0.25015882 0.5692959 -0.3244663
000080 95 f8 b7 be e8 30 8b 3e 85 9b 4f bf 0f 1e 16 3f
       -0.3593184 0.2718575 -0.8109668 0.58639616
000090 0d 52 6a 3e 9d e7 dd 3e 49 e0 5c 3e 85 09 fa be
       0.22882862 0.4334077 0.21569933 -0.48835388
0000a0 47 58 db 3e 63 3f 10 bd fc ca b5 3e 18 4f 2c be
       0.42840788 -0.0352167 0.35506427 -0.16827047
0000b0 b7 31 57 be f1 14 ef 3d 95 6c f8 3e af 05 ec be
       -0.21015058 0.11673916 0.48520342 -0.46098086

834 f4 [48, 1, 1]
000000 53 73 19 3f ac a8 f8 3e a4 fb b3 be bf 88 74 bf
       0.59941596 0.48566186 -0.35152924 -0.9552116
000010 93 91 90 bd 33 79 9a be 67 b0 92 3c 85 eb db be
       -0.07059016 -0.30170593 0.01790638 -0.42953125
000020 14 82 9d be 54 65 84 bf 6e 92 4e be f9 c0 ef be
       -0.30763304 -1.0343423 -0.20173046 -0.46826914
000030 52 8b 1a be 0d df 07 3f 06 27 3b be c6 0f 94 3e
       -0.15092209 0.53074723 -0.18276605 0.28918284
000040 9d fb 81 bd ec aa 7d be 5e d1 a9 bc ea 83 06 3b
       -0.063468195 -0.24772233 -0.020729717 0.0020525404
000050 c9 ab 75 3e 3e 97 e8 be 28 96 37 bf f6 1f 89 be
       0.23991312 -0.4542789 -0.71713495 -0.26782197
000060 5e b1 13 3f 8b 10 42 3c 87 db a4 be bc 5c 20 3f
       0.57692516 0.011844764 -0.32198736 0.626415
000070 06 9c 15 bf 1b ad 37 bf f1 7a 21 3f cf 1f fb 3e
       -0.584412 -0.71748513 0.6307822 0.49047706
000080 2e ac 1e be bd e1 95 3d 81 86 d5 35 48 d7 0d bf
       -0.15495369 0.07318447 1.5908882e-06 -0.5540662
000090 e5 b6 a9 3e ca 56 20 bf 2d 66 b7 be e4 d4 cd be
       0.3314735 -0.6263243 -0.3582014 -0.40201485
0000a0 b5 6b e4 3e 82 f6 e6 be 7e 78 7b bf 10 5f b3 be
       0.44613424 -0.45109946 -0.9823073 -0.35033464
0000b0 06 18 3b be 17 a4 5f bf d3 d9 24 bf e7 b0 03 bf
       -0.18270883 -0.87359756 -0.64394873 -0.51441807

835 f4 [96, 1, 1]
000000 e8 e6 d5 3c c8 21 3a 3e fd 49 90 be 86 5a 08 be
       0.026111081 0.18176949 -0.2818145 -0.13315782
000010 83 c1 cc 3c 68 f2 5a bc 78 ad 01 bf 3f 63 77 bc
       0.024994617 -0.013363458 -0.5065532 -0.015099346
000020 91 f2 2d 3f 0a 3c db bc 5f 38 77 3d ef 8f 90 3d
       0.6794825 -0.026762027 0.060356494 0.07058703
000030 aa 08 69 bd 6f dd 5f 3d 5a 58 13 3e 7e 5a dd 3c
       -0.05689303 0.054654535 0.14389172 0.02702069
000040 1c ab 02 3c 58 f2 88 3e 8e 1c 03 bf 6e 16 73 bd
       0.007975366 0.26747394 -0.51215446 -0.059347562
000050 00 eb 06 3d 78 bb db bd c2 cf 43 3e 79 b0 73 3d
       0.032938957 -0.10729116 0.19122222 0.05949447
000060 e9 4d 0e be 73 5a 2a be 3b c1 b1 bd c5 1b cc 3d
       -0.13896908 -0.16636066 -0.08679434 0.09966234
000070 4a c2 91 be ee 76 ab 3b 50 5a fe 3e e8 9f db 3d
       -0.28468543 0.0052326834 0.49678278 0.10723859
000080 4b 23 4b be 6c a7 14 3e 9d 03 3a 3e d7 e8 df 3d
       -0.19837682 0.14516991 0.18165441 0.109330826
000090 f7 5a b1 be 39 17 b0 be 00 74 67 bd ca 5c c9 be
       -0.34639713 -0.34392717 -0.05650711 -0.39328605
0000a0 10 f9 8a be bb f3 c2 3d c9 cd 2a 3d f4 99 60 3e
       -0.27143145 0.09519144 0.04170016 0.21933728
0000b0 e6 9e c8 3c 57 6a 6f be 0c 11 9b be 47 52 03 3e
       0.024489831 -0.23380409 -0.30286443 0.12824355
0000c0 1c 80 dc bd de 85 34 3b 53 b5 c4 be 4f cc 29 be
       -0.107666224 0.0027545611 -0.3841959 -0.16581844
0000d0 a5 9c 74 be 9d 88 50 bd 2b d2 9a be cb 34 f5 bc
       -0.2388788 -0.050911535 -0.3023847 -0.0299324
0000e0 cd f7 de 3d 68 93 20 be 0c 8f 9e be 2c 01 53 be
       0.10887108 -0.15681231 -0.3096851 -0.20605916
0000f0 65 d8 8a 3d ef 85 58 be c7 f0 b6 ba 93 05 0d be
       0.06779555 -0.21144842 -0.0013957255 -0.13771658
000100 b6 01 26 be 47 ec 27 be a2 1a 96 be 70 db ed bd
       -0.1621159 -0.16398726 -0.29317194 -0.1161412
000110 90 5c 85 be 3d 0c 33 bf 15 d3 1d 3f 5c 61 3f 3d
       -0.26047182 -0.6994055 0.6165021 0.04672371
000120 f4 5c 4e be 3e 83 98 bd eb a2 05 bc ab ec 37 be
       -0.20152646 -0.074469075 -0.008156518 -0.17961375
000130 6e 4d f5 bd a0 dc 22 bf 2a ce 9d 3d e2 f2 02 bf
       -0.11977659 -0.636179 0.07705338 -0.5115186
000140 b5 21 8b be 75 da 63 be 26 be 86 bc c7 44 1a bf
       -0.27174154 -0.22251303 -0.016448092 -0.60261196
000150 9d 29 b8 bd 7e 7d 0d bd 9a 03 d6 be 26 62 2e be
       -0.08992312 -0.034543507 -0.41799623 -0.17029628
000160 54 27 ac be 0d 07 0d bb 3d ea 14 bf 47 bf d8 3e
       -0.33623755 -0.0021519095 -0.5816992 0.42333433
000170 00 0e fa bd ec b2 70 3c 87 27 6a 3e 4c fa 02 be
       -0.122097015 0.014691096 0.22866641 -0.12790793

836 f4 [48, 1, 1]
000000 e2 75 82 3e 89 81 83 3f 62 ab 4f bf 38 13 1c 3f
       0.25480562 1.0273906 -0.81120884 0.60966825
000010 ef 54 d6 be e7 e8 44 3f b9 03 12 bd d7 51 22 3e
       -0.41861674 0.7691788 -0.03564808 0.15851532
000020 81 bb b1 be a7 1a 3b 3e 45 f2 d2 3d fb e0 1c 3f
       -0.34713367 0.18271886 0.103001155 0.6128079
000030 b7 a9 30 3f 50 10 b9 be 7f d7 e7 3e ec 38 fa 3e
       0.69008964 -0.36145258 0.45281598 0.48871553
000040 53 d2 1e 3f ee 4a e7 3e 53 fa fc bd 8c e8 c0 be
       0.6203968 0.45174354 -0.12352433 -0.3767742
000050 1f b5 64 bf b0 7d 63 bf de c9 f5 be 1b d5 38 3e
       -0.8933887 -0.8886366 -0.48005575 0.18050043
000060 25 2c 7b 3f a3 4f 03 3f d1 1e 12 bf 0e ef b0 3d
       0.98114234 0.5129339 -0.5707827 0.08639346
000070 80 62 8b 3e 69 f4 e5 3e dd d6 d4 3e 01 e2 87 be
       0.27223587 0.44913033 0.41570178 -0.26539615
000080 e2 29 27 bc b9 84 21 3f 6c 3e f9 bc fc 66 43 3f
       -0.010202857 0.63093144 -0.030425273 0.76329017
000090 a2 c4 7b 3e dc 84 23 bd 1c 0d 1f bf d1 8e 56 be
       0.24586728 -0.039921626 -0.6212938 -0.20952918
0000a0 6e 45 ef bd a8 e7 b6 3e 7d 2f 16 3f 88 b8 4a 3f
       -0.116831645 0.35723615 0.5866621 0.7918782
0000b0 11 e6 69 3e 06 8a e7 be 67 d9 29 3f 44 f2 67 3e
       0.2284167 -0.4522249 0.66347355 0.22651011

837 f4 [48, 1, 1]
000000 bc fd aa be fb db 21 3f 02 ad 21 be e4 1c 87 be
       -0.3339671 0.6322629 -0.15788653 -0.2638923
000010 10 7e 77 3e f8 66 0d bf 80 44 51 3d 67 6c 4e 3f
       0.24169183 -0.5523524 0.051090717 0.8063416
000020 5c 9c 38 3f d5 1d 34 3f aa 82 01 bf 09 df db 3e
       0.72113585 0.7035802 -0.5059 0.429436
000030 ec af d8 3e e9 3a b0 be d8 b0 49 bd e7 02 4b 3e
       0.42321718 -0.34419945 -0.049240917 0.19825326
000040 95 db 63 be ae 05 a6 bd 58 61 07 3c 85 54 61 3f
       -0.22251733 -0.08106552 0.008262955 0.8801959
000050 01 ea ec 3e 99 a1 d0 be c6 26 8f 3d 38 6b c6 3e
       0.4627228 -0.4074829 0.06989817 0.38753676
000060 20 76 79 3e 40 1b 67 3f 94 16 91 bd ad b0 a0 3e
       0.24361467 0.90275955 -0.070843846 0.31384793
000070 e9 ec 1f 3e 15 7d 3d 3f 93 ab c0 be bb df 1b 3e
       0.15617718 0.74018985 -0.376309 0.15222065
000080 2c b7 0d be c8 4e 78 3e 8e 82 8a be 2c 29 12 3e
       -0.13839406 0.24248803 -0.2705273 0.14273518
000090 08 9e 50 bf ae d9 6e 3e 71 5d b4 3e 2f c8 3f bf
       -0.81491137 0.23325226 0.3522754 -0.7491483
0000a0 b9 32 ad 3e 30 f9 69 be 22 4f 8d 3e 0c 13 c1 3e
       0.3382776 -0.22848964 0.27599436 0.37709844
0000b0 44 86 bf 3d b1 8d f1 3e dd 51 f1 be 6e c9 0a 3f
       0.09351781 0.47178414 -0.4713277 0.5421361

842 f4 [4]
000000 00 00 80 3f 00 00 80 3f 00 00 00 40 00 00 00 40
       1.0 1.0 2.0 2.0

843 f4 [96, 1, 1]
000000 80 6a 78 bc 00 2b 9b 3e e2 d2 c7 bb 4f 6a 99 bc
       -0.01516211 0.30306244 -0.0060981372 -0.01872745
000010 a3 93 05 3e 1d 5c 23 3e e6 87 a6 3e fe 44 22 be
       0.130446 0.15953107 0.32525557 -0.15846631
000020 ed b0 26 3f d9 1a 9a 3d 5e 28 ea bd c2 d3 11 3e
       0.6511372 0.07524652 -0.11433481 0.14240935
000030 29 5d 11 3e e3 35 b5 3e 09 c6 3a bd 3b 89 8e 3b
       0.14195694 0.35392675 -0.045599017 0.0043498552
000040 15 fc 64 be 7e 1c 97 3e 1d da 56 3e c8 07 d3 be
       -0.22361787 0.29513925 0.20981641 -0.41216874
000050 b8 8b 5d bd 8d 53 a6 bd 02 fa 29 3f bd fb 5b 3e
       -0.054088324 -0.08121405 0.66397107 0.2148275
000060 cf 16 8b 3d c0 f5 2e 3e 7a 76 87 3e 96 53 3f 3d
       0.0679146 0.17085934 0.26457578 0.046710573
000070 7a df 36 3d a3 3d 44 bd 2e 3c 37 3d 1b da aa bc
       0.044646718 -0.047910344 0.044735126 -0.020855954
000080 24 3d 9d 3c 8a 13 a9 3d 27 64 6c 3d 80 89 4d be
       0.019194193 0.0825568 0.0577127 -0.20071983
000090 a0 f6 a7 3c 40 05 dc bd 17 bb 96 3c cf 76 f0 3d
       0.020503342 -0.10743189 0.018399758 0.11741411
0000a0 2f f3 05 3d 70 7e 6f 3d 63 ba cc b9 90 a6 97 3e
       0.03270262 0.05847019 -0.0003904878 0.29619265
0000b0 59 0f 00 be 88 38 11 3f 4a fa 9e 3d f5 0b 88 bd
       -0.12505855 0.56726885 0.077625826 -0.066429056
0000c0 dc ec 22 bd 15 11 e1 bd 0f c1 5d bd d4 a9 f1 3d
       -0.039776668 -0.10989586 -0.054139193 0.1179997
0000d0 69 1f 4b bf 43 7f 8a be 34 10 80 bc f5 2a 6e 3d
       -0.79344803 -0.27050218 -0.015632726 0.058146436
0000e0 16 f7 ab 3b 3e 95 ca bd bc 3e 1d bd 6c cc 83 bc
       0.005247961 -0.09891747 -0.038389906 -0.016088687
0000f0 f9 64 93 3e 3c 26 bc bd 30 14 09 be e0 49 04 be
       0.28787974 -0.0918698 -0.13386607 -0.12918806
000100 09 95 8d be a2 7a b0 bd be ae 05 be 2c 67 81 bd
       -0.27652767 -0.0861714 -0.1305494 -0.063185066
000110 27 ed 04 bd b6 3c 71 bd 56 f1 67 be 30 83 ab bd
       -0.03245273 -0.05889579 -0.22650656 -0.083746314
000120 52 89 cf bb a4 cf a3 bc b8 bf 84 be 96 36 5f 3d
       -0.0063335085 -0.019996472 -0.2592752 0.054495417
000130 ce ee 0a bf ee 5f f4 bb ff b4 a5 3e 8d 9d 94 bc
       -0.5427064 -0.007457725 0.32364652 -0.018141532
000140 03 85 04 bb e7 a7 62 bd 2b d9 5c bd c4 0b e8 3d
       -0.0020220883 -0.055335905 -0.053918045 0.11330369
000150 4e 41 ff be a8 8a 24 be 59 26 b8 3e 6b e8 da bc
       -0.4985451 -0.16068518 0.35966757 -0.026722154
000160 09 3f 51 3d 35 ba 01 bd d3 2a ca 3d 3c 17 9b bc
       0.051085506 -0.03167172 0.09871449 -0.018931977
000170 71 7e 3c bd ca 0e 2f 3d 8d 90 86 3e 09 a1 88 bd
       -0.04601902 0.042738713 0.26282158 -0.0667134

844 f4 [48, 1, 1]
000000 b4 c9 c9 3d f9 bf c2 3b 4b 8f 18 3f 1d 32 ba be
       0.09852925 0.005943295 0.5959365 -0.36366358
000010 c9 4e 11 bf 09 c7 c1 3d 90 a1 b8 be 64 f9 61 3b
       -0.5676084 0.09461791 -0.36060762 0.0034480924
000020 dd 68 3c 3e 87 3b b4 be 26 bf 03 3f 3b 5d 7a be
       0.18399377 -0.35201666 0.51463544 -0.24449627
000030 43 11 29 bf 5c 0c 84 3e 89 67 dd bd da c9 40 3e
       -0.66041964 0.2579068 -0.108107634 0.18827
000040 65 62 a7 be 4a 93 88 bd 9e d8 10 be 2c 3d fc 3d
       -0.32692257 -0.06668718 -0.14145133 0.12316355
000050 26 64 2f 3d c3 12 81 3e ca 86 18 bf 9a 36 16 3e
       0.04282012 0.25209627 -0.5958067 0.14669266
000060 75 af 7b 3f 39 3c 2b 3e 0e ea 2f be ae 94 98 3e
       0.983146 0.16722192 -0.17179129 0.29800934
000070 ac 70 06 bf 0e 38 28 bd c0 9c fb bd b1 a3 b9 be
       -0.52515674 -0.041069083 -0.12285757 -0.362577
000080 90 78 e8 3e 2b 97 74 3e 1d 1b a2 be c2 a2 8f 3d
       0.45404482 0.23885791 -0.3166131 0.070134655
000090 51 80 21 3d 1e 0d 44 ba b2 e5 0d 3e 00 6f 6d be
       0.039429013 -0.0007478761 0.13857153 -0.23186874
0000a0 d6 b5 71 3c 3f d3 4d be 35 6a a0 3e 28 f6 a9 3e
       0.014752826 -0.20100115 0.3133103 0.33195615
0000b0 64 20 24 3f 74 f2 bd bd fe 29 91 3e 4d 17 b8 bc
       0.64111924 -0.0927476 0.2835235 -0.022472048

849 f4 [4]
000000 00 00 80 3f 00 00 80 3f 00 00 00 40 00 00 00 40
       1.0 1.0 2.0 2.0

850 f4 [48, 1, 1]
000000 03 bd 01 3f 0d 96 df 3e 3f ea 4c be ae d8 14 3e
       0.50679034 0.43669167 -0.20011233 0.14535782
000010 f8 63 4c be d2 88 06 3f bc 83 e4 3d 33 07 93 3d
       -0.1996001 0.5255252 0.11157939 0.071791075
000020 03 35 87 be 5e bc 93 3c b1 f0 ba 3e 4c 50 0d be
       -0.26407632 0.018034156 0.36511758 -0.13800162
000030 93 3f e4 3e 2c 1d f9 3e c1 25 83 3d b7 e0 a7 3d
       0.44579753 0.4865507 0.06403685 0.08197158
000040 ba 20 f4 3d 6a d5 94 be 3a 8a eb 3e 68 ca 3c 3f
       0.119203046 -0.29069072 0.46003896 0.7374635
000050 5a 76 09 3f 11 65 9a bc d1 91 1c 3f 17 b8 1b bf
       0.53696215 -0.01884702 0.6116 -0.60827774
000060 00 db 44 3e 38 99 99 3e c8 57 53 be 35 23 1c 3f
       0.19224167 0.2999971 -0.20638955 0.6099122
000070 6e 96 de be f1 55 0f 3f f6 53 12 3e c6 27 d6 3e
       -0.43474144 0.5599051 0.14289841 0.4182722
000080 b4 00 e4 3e 78 73 36 3f 24 9f 4a bd 71 26 40 3f
       0.44531786 0.7126994 -0.049468175 0.75058657
000090 21 84 ba 3e c0 e1 2e 3d 9f 6f 3e be 5e d2 a7 3e
       0.3642893 0.04269576 -0.18597268 0.32777685
0000a0 40 b5 8f bd ba 71 85 3e 75 cb 45 3e dc e8 b6 3e
       -0.070169926 0.2606333 0.19315894 0.35724533
0000b0 00 c3 89 3e c7 6e 8f 3d c2 a8 90 3d 78 41 08 3f
       0.26906586 0.07003551 0.07063438 0.532249

855 f4 [4]
000000 00 00 80 3f 00 00 80 3f 00 00 80 40 00 00 80 40
       1.0 1.0 4.0 4.0

856 f4 [96, 1, 1]
000000 ef 1e 3c be ba f9 a2 be 09 12 03 be b8 3d 50 3e
       -0.18371175 -0.3183115 -0.12799849 0.20336044
000010 a9 a7 03 bf 5f e0 15 3d 08 94 bf be 41 dc 54 bd
       -0.51427704 0.03659093 -0.37417626 -0.051967863
000020 13 76 1b bf c1 1e 95 3e 5c 13 b6 bd 35 ba 13 be
       -0.6072704 0.29125026 -0.08890411 -0.14426501
000030 3f d8 b6 bd d4 82 43 3f 5d f9 2f be 0d e3 5e bd
       -0.089279644 0.763715 -0.17184968 -0.05441575
000040 b9 84 15 be 45 fc 8f be d3 08 59 3f 4c a0 e2 be
       -0.14601411 -0.28122154 0.8477909 -0.44262922
000050 6e 49 9d be 91 b9 fb 3d 37 72 c4 be 42 34 3f be
       -0.30720085 0.12291253 -0.3836839 -0.18672279
000060 a9 c2 98 be 23 df 94 be 4d b0 87 3e f0 28 a2 3d
       -0.29836014 -0.2907649 0.26501694 0.079179645
000070 b8 60 e5 3e f5 b9 f8 3d 7e 75 f0 bc 70 97 07 be
       0.44800353 0.121448435 -0.0293529 -0.13241363
000080 bb 63 37 be 83 f9 21 3f 54 9e 4c bc e2 bb 06 3e
       -0.17909138 0.6327135 -0.01248892 0.13157609
000090 85 12 64 be e7 11 0e bc 3f 0c 7b be c3 1e 02 be
       -0.2227269 -0.00867126 -0.2451639 -0.12707047
0000a0 23 4d 21 bd 7e 46 b7 3b 6c 54 aa 3e 49 0e 1a bf
       -0.039380204 0.00559312 0.33267534 -0.6017805
0000b0 13 b3 b5 3e 23 e4 4a 3a d6 c1 21 be 74 c3 24 bf
       0.35488185 0.00077396835 -0.15796599 -0.6436074
0000c0 1b 96 ff bd 3a 5a c0 bc 17 95 c2 bd 74 0c 4b 3e
       -0.12479802 -0.023480523 -0.09501093 0.19828969
0000d0 18 4c 44 3f a3 a7 95 3c b0 79 9c be 66 45 02 be
       0.7667861 0.018268412 -0.3056159 -0.12721786
0000e0 a5 a2 16 bf 7c ae b3 be 8f fa 99 be 0b ef 41 3e
       -0.58841926 -0.3509406 -0.30073974 0.18938844
0000f0 a8 c4 0c bf ab 49 2e be d9 19 40 3c 4f 9c 81 3d
       -0.54987574 -0.1702029 0.011724913 0.063286416
000100 fc 95 e7 bd 55 fd 0a bf 70 d3 ea bc 8f 91 3d be
       -0.11307904 -0.54292804 -0.028665274 -0.18512557
000110 b7 93 51 be c1 ca 88 be d1 46 37 be 73 9f 97 be
       -0.20466505 -0.2671719 -0.17898108 -0.29613838
000120 b3 3e 81 bd b0 81 0e bf 62 bf 6e be 9b cd 16 be
       -0.06310787 -0.5566664 -0.23315194 -0.1472687
000130 5a 4d 8e be 84 c5 91 be 76 40 25 bd 83 0d 1a bf
       -0.2779339 -0.28471005 -0.040344678 -0.6017687
000140 6a c5 4b be 2e a3 d1 be 13 32 13 be 73 31 64 be
       -0.19899526 -0.4094481 -0.1437457 -0.22284488
000150 27 8b c6 be 69 f7 5f b9 18 7d 3f 3d 80 b0 1d be
       -0.3877804 -0.00021359105 0.046750158 -0.1539936
000160 87 ef d2 be 55 9a 75 be 6f 22 b1 be d0 ca 97 be
       -0.4119837 -0.23984654 -0.34596583 -0.2964692
000170 ba 64 83 be d4 aa 93 be d6 2d 3e bb 25 f8 64 be
       -0.25662786 -0.2884127 -0.002901902 -0.22360285

857 f4 [48, 1, 1]
000000 64 52 0e be 8e a7 43 be a4 22 5d 3d 52 6c fe bd
       -0.13898617 -0.19106886 0.053988114 -0.12423004
000010 fd a3 98 3f 88 86 6d be 7b d1 09 3f 4d 88 34 bc
       1.1925045 -0.23195851 0.53835267 -0.011018825
000020 ad fd 34 3f ff 4b 78 3d 4c 94 f0 3e 75 2a 57 be
       0.7069958 0.06061935 0.46988142 -0.2101229
000030 f0 13 16 bf 38 3b 36 be af 12 8a bc ac c6 2d be
       -0.5862417 -0.17796028 -0.016854612 -0.16970319
000040 38 33 07 3e 4f da d7 be a0 bb 73 3d 4a 50 cc 3c
       0.13203132 -0.42158744 0.059505105 0.024940629
000050 06 f3 55 bd 6c 8d 1b 3e 67 ec c5 bd 68 23 cf 3e
       -0.05223372 0.15190667 -0.09664231 0.404567
000060 51 2b 97 3e bd 49 f7 bd 37 b3 2f 3f 72 0e 45 bd
       0.29525235 -0.12074611 0.68632835 -0.04810948
000070 9d 42 c1 3d db 61 79 be b2 de be be ec f4 fb be
       0.094365336 -0.24353735 -0.37279278 -0.49210298
000080 fb c2 0c 3f be 21 63 be 91 5d 17 3e 2e c2 0d bc
       0.54985017 -0.2218084 0.14781787 -0.008652253
000090 cb de bc 3e 86 9b 73 be 21 fb 19 bf 0a f0 b8 bd
       0.36888728 -0.23789796 -0.6014882 -0.09030159
0000a0 b4 b1 8f 3e bc f5 23 bf 9e c6 e1 bd 80 a0 f9 bc
       0.28065264 -0.64046836 -0.11024211 -0.03047204
0000b0 06 6d 26 3f b4 20 ab bd 00 89 cc 3e 20 bd 22 be
       0.65010107 -0.08355847 0.39948273 -0.15892458

858 f4 [48, 1, 1]
000000 a2 59 c0 3d 5e 73 4d bf 5b 64 95 3e e8 7e 00 be
       0.09392096 -0.8025416 0.29178128 -0.12548411
000010 b5 39 1b 3f 57 d9 b9 3c 94 0a 05 3f cd af e7 bd
       0.6063493 0.022686644 0.51969266 -0.11312828
000020 21 df 11 bf 01 e3 66 be d2 60 0d 3f 4f c1 bb 3e
       -0.5698109 -0.22547533 0.5522586 0.3667092
000030 b8 6c 30 3f cd 20 97 bd 1b 35 21 bf b2 3e 36 be
       0.6891589 -0.07379303 -0.6297166 -0.17797354
000040 c0 c7 5a 3e a6 84 1b 80 1b 90 35 3e 3d a0 aa be
       0.21365261 -2.527144e-39 0.17730753 -0.33325377
000050 df e7 45 3c 02 0a 5d 3d ff a1 af 3e 5e 07 7a 3e
       0.012079208 0.053964622 0.3430328 0.24416873
000060 62 ff 89 3e c3 dd 17 be 91 2f fe 3e e5 5b cd bd
       0.26952654 -0.14830689 0.49645665 -0.10027293
000070 ca 15 db 3e f4 28 20 bd 7c e3 8c 3e cc 93 a6 be
       0.4279006 -0.039101556 0.27517307 -0.32534635
000080 44 9e 41 3d ec 77 ea 3e f9 07 1f 3e 57 37 b5 bc
       0.047270074 0.45794618 0.15530385 -0.022121115
000090 ea 01 94 3e e4 df da bd 5c 87 4e bf 86 d6 55 3d
       0.2890771 -0.10687235 -0.8067529 0.05220654
0000a0 25 cb 20 3f b4 b0 2a 3e 55 a1 17 3f 6c f3 7f be
       0.62809974 0.1666897 0.5923055 -0.24995202
0000b0 ce e1 c7 3e a3 98 0e 80 af 00 8b 3f 57 c1 00 80
       0.39039463 -1.340453e-39 1.0859584 -6.9357e-41

859 f4 [96, 1, 1]
000000 ad e1 51 be 20 d9 20 be 8c 05 3a be 22 1e 8f be
       -0.20496245 -0.15707827 -0.18166178 -0.27952677
000010 f1 cf ac 3e 1a 8e 92 be 9f f7 08 be ba 1c de bd
       0.33752397 -0.2862404 -0.1337571 -0.10845323
000020 aa e7 55 bd ec f0 41 be 76 7a 14 be dc c8 99 3e
       -0.052222885 -0.1893956 -0.1449984 0.30036056
000030 2f d8 00 bf 61 8b 88 3f 04 5c 50 be d7 fa d0 bc
       -0.5032987 1.0667535 -0.20347601 -0.025510235
000040 62 3a 5c bd 30 35 44 be bc ec f3 bd 64 53 8c be
       -0.053766616 -0.19160914 -0.11910388 -0.27407372
000050 0e 45 dc 3e b6 5f d7 be ef e3 75 be 4f c1 e7 bd
       0.43021435 -0.4206521 -0.24012731 -0.113161676
000060 b8 f0 2b 3e b5 c2 c5 bd 21 42 2a be 56 59 82 be
       0.16791046 -0.09656278 -0.16626789 -0.25458783
000070 17 66 02 be 7b ba 8d 3d 45 7d 36 3c e9 a2 d4 bb
       -0.12734257 0.06920334 0.011138265 -0.006489147
000080 26 0d a6 bd c7 49 9f 3e 96 a3 fe bd 03 c4 6d be
       -0.081079766 0.31110975 -0.12433545 -0.23219304
000090 ad 13 79 bd 4f 98 05 bd 68 c8 43 be 0b 6e 39 bd
       -0.06080978 -0.032615956 -0.19119418 -0.04527096
0000a0 f3 9e cc be 23 77 4b bf 36 84 fa 3e 61 3f 26 be
       -0.3996502 -0.79478663 0.48928994 -0.16235115
0000b0 3c 84 e4 be cd 66 85 bd 11 68 bb bd 01 ab 23 be
       -0.44632137 -0.06513748 -0.091507085 -0.15983202
0000c0 70 ea 43 be a1 a8 85 be fc a5 9b be ca 04 b7 be
       -0.191324 -0.26105216 -0.30400074 -0.3574584
0000d0 e9 84 34 bf a9 d2 4a be 72 3c 1b be 31 70 04 3c
       -0.70515305 -0.19806923 -0.15159777 0.008083389
0000e0 7f 72 47 3d eb 88 dc be 70 53 7f be 9d 6b 06 be
       0.048693176 -0.4307321 -0.24934173 -0.13126989
0000f0 b4 14 17 be 13 cb 0d 3f d8 f3 1d 00 7b 1d 37 3b
       -0.14753991 0.5538799 2.750704e-39 0.0027941156
000100 04 d5 85 3e b2 fc 66 be dc ff b1 3e 97 0c 33 3f
       0.2613908 -0.22557333 0.34765518 0.69941086
000110 0a cb e2 3d a9 be 7d be 2c b4 af bd 62 19 00 bd
       0.11073883 -0.24779762 -0.08579287 -0.031274207
000120 64 9b ad be 39 c2 80 3c 45 8d d2 be 14 85 3c be
       -0.33907616 0.015717613 -0.41123405 -0.1841014
000130 0e 12 2a 3e b0 b6 8a be ec f9 95 be c2 85 2e 3e
       0.1660845 -0.27092505 -0.29292238 0.17043212
000140 3b 55 9d bd ce ad 9a bd 64 3c 0a bd 9d a4 bd be
       -0.07682272 -0.07552682 -0.033749 -0.37039652
000150 db 68 8d be 41 4b 61 bf c0 3e 2c be e4 36 29 bf
       -0.2761906 -0.88005453 -0.16820812 -0.6609938
000160 04 93 8a 3d 83 d5 05 3f d2 d6 f4 be d3 cf 2a be
       0.06766322 0.5227892 -0.47820145 -0.16680841
000170 23 ff 89 be 41 2f ff bd 7c 68 77 be 2b d1 53 3d
       -0.26952466 -0.12460185 -0.24160951 0.05171315

860 f4 [48, 1, 1]
000000 56 7d e0 be f2 ec 17 3f f1 ac 54 be 16 2d c5 be
       -0.43845624 0.59345925 -0.20769097 -0.3851096
000010 3a 76 bf 3e 72 90 86 be 87 61 4c be 72 0f 8e 3e
       0.37394887 -0.26282078 -0.19959079 0.2774616
000020 2f c8 07 3f 07 d9 04 3f 5f 27 69 3f 9f 4f 55 be
       0.5303983 0.5189366 0.910757 -0.20831154
000030 05 d6 d0 3e 63 70 a6 be e7 60 45 bf a8 53 1f 3d
       0.40788284 -0.3250762 -0.77100986 0.03889814
000040 d8 6e e9 3e 89 74 87 bc f7 ed 4a 3f 1f 62 4c bf
       0.4559238 -0.01653506 0.79269356 -0.7983722
000050 59 76 03 3f fa 15 b3 be 22 5d db be da 4f 76 3e
       0.5135246 -0.34977704 -0.42844492 0.24053898
000060 37 37 1e 3f 4a 28 fd be b1 74 be 3e 7c 60 98 be
       0.61803 -0.494448 0.37198403 -0.29761112
000070 3f 5c 03 3f 50 58 22 3f 98 d5 a8 bd 99 2e e0 3e
       0.5131263 0.63416004 -0.08243865 0.4378555
000080 e6 c0 8b 3e bd c5 94 ba fc 6e 18 3f 30 0a 65 be
       0.27295607 -0.0011350435 0.5954435 -0.22367167
000090 2e 5d 51 be 41 ec fb be ff 2b 0e 3f c7 5f 2d 3f
       -0.20445701 -0.49203685 0.5553588 0.6772427
0000a0 b7 f8 3e 3f a5 47 5e 3d a7 6d 03 be 30 d5 95 bd
       0.7459826 0.054267544 -0.12834798 -0.07316053
0000b0 56 f1 03 bf 6b 4f 2e 3f 6c 59 1f 3f 4d 33 ac be
       -0.51540124 0.6808993 0.6224582 -0.3363289

861 f4 [48, 1, 1]
000000 94 65 51 3f f3 b9 2c bf ba 43 3d 3f 56 95 a7 3d
       0.8179562 -0.67471236 0.7393147 0.081827804
000010 17 9c 5f 3f c4 d0 ab be 8b 76 e1 be 2c 13 23 3f
       0.8734755 -0.33557713 -0.44035754 0.6370113
000020 06 b2 d3 3d 73 80 13 3f fe 0b 2b 3f 96 9e 9e be
       0.1033669 0.5761787 0.66815174 -0.30980366
000030 65 d5 de 3e 75 62 02 bf 22 90 46 3e 07 39 c7 3e
       0.43522182 -0.50931484 0.1939092 0.38910696
000040 89 e9 3b 3f 8e f1 1a be d0 89 fd 3d bf 07 ea 3e
       0.7340322 -0.15131208 0.12379801 0.45709035
000050 35 12 9c 3e 88 56 48 3e 45 71 17 bf a0 13 93 be
       0.3048264 0.19564259 -0.5915721 -0.2872591
000060 69 9f f5 3e 6a 87 25 bf f3 f7 26 3f 01 3f 37 3f
       0.47973183 -0.6465975 0.6522209 0.7158051
000070 a8 c8 11 3f 69 c0 4b 3f 2e eb 9e 3e 73 61 15 3f
       0.569468 0.7959047 0.31038803 0.5835182
000080 04 82 39 3f f8 b1 df 3e a0 63 40 3e 10 57 46 be
       0.72464013 0.43690467 0.18788004 -0.19369149
000090 49 c5 ab be eb d7 06 bd 4f 2f 4a 3f 17 b9 92 be
       -0.33548954 -0.03292076 0.7897844 -0.28656837
0000a0 cf f8 c9 3e 8e 73 12 be c7 53 03 3f 09 e7 9a 3e
       0.39447638 -0.14301893 0.5129971 0.3025439
0000b0 3d a3 72 3d cd ed 2c bf 01 83 98 3f 7e 1e 0e be
       0.059237707 -0.67550355 1.1914979 -0.1387882

862 f4 [96, 1, 1]
000000 ed e8 90 bd c3 02 6e 3f 9c 29 48 bd 62 b0 8e 3f
       -0.07075677 0.92972964 -0.048867807 1.1147578
000010 c5 1a 92 be 0e 5c f4 3d 92 89 ec 3e 93 ce 84 bf
       -0.2853605 0.119316205 0.46198708 -1.0375541
000020 5d 0c dd bd 26 58 8d be 3b 59 25 3d cd 97 1d 3f
       -0.10793374 -0.27606314 0.0403683 0.61559755
000030 c4 6a d8 be 93 b5 43 3f cd 2d 48 be 7c 6d cb 3b
       -0.42268956 0.76448935 -0.19548722 0.00620812
000040 a6 07 d8 be 9e f6 1c bb 22 9e 85 bd 88 df a7 be
       -0.42193335 -0.0023950706 -0.06524302 -0.32787728
000050 01 ab 0c be 05 a7 f8 bd 14 c8 bb 3e 5a 90 ec 3e
       -0.13737108 -0.121412314 0.36676085 0.46203882
000060 eb 1d df bd f5 d7 a2 3e 48 ae cb bd 6b 8e 1e bf
       -0.10894378 0.31805387 -0.09945351 -0.6193606
000070 2e 63 2e be 12 e2 32 be 47 64 24 3c 4a bd 2e 3f
       -0.17030022 -0.17469051 0.010033674 0.6825758
000080 20 85 bb 3e 1e 00 ef 3c c4 84 3d bd ce 04 cc be
       0.36625004 0.02917486 -0.046269193 -0.39847416
000090 0f 87 ff 3d 5c bb 2f bf 42 49 d2 be ed 8d a1 3d
       0.12476932 -0.6864526 -0.41071516 0.07888398
0000a0 c2 ad 05 be 74 75 65 be d6 d3 18 be c2 d4 8c bd
       -0.13054565 -0.22408086 -0.14924559 -0.06876518
0000b0 56 cb 20 be cc 12 10 be a0 b5 45 bf cf 73 9f be
       -0.15702567 -0.1406967 -0.7723026 -0.31143042
0000c0 b7 c3 59 bd 0c 74 be be df be 2b 3e b4 fe 9d be
       -0.053165164 -0.37197912 0.1677203 -0.30858386
0000d0 0e f9 6a bb ec a0 e7 3d 26 70 34 bf 01 ee e5 3e
       -0.0035854015 0.1130999 -0.70483625 0.44908145
0000e0 0a 3f 33 3e 4e 8c 30 3e 7d 25 18 bf 2b fe da 3e
       0.17504516 0.17241022 -0.594322 0.4277204
0000f0 3f 04 22 3f 03 8c c3 3c 87 fa 49 3f 73 31 2b be
       0.6328773 0.023870474 0.788979 -0.16718082
000100 f0 5e e7 3d f7 fe af 3d 0b 77 9e 3f a7 5f 4b 3f
       0.11297405 0.085935526 1.2380079 0.7944283
000110 84 4d 0a 3f 6b 57 57 3f 97 4e f0 3e 70 31 33 3f
       0.5402453 0.84117764 0.4693496 0.6999731
000120 31 54 3d bd d9 5a 27 3f 28 b7 14 3f 20 c5 81 3e
       -0.04622287 0.65373 0.58091974 0.25345707
000130 6d b4 b8 3e c9 8e fb 3d ee e4 9c 3d 33 40 02 bf
       0.36075154 0.122830935 0.076608524 -0.5087921
000140 4f 41 03 3f 39 31 16 3f 65 cf 0f 3f f2 03 6b 3f
       0.5127153 0.5866886 0.56175834 0.91802895
000150 c4 f9 bc bd 23 77 42 be c2 7c 1c 3f a9 a3 4e 3e
       -0.092273265 -0.1899076 0.61127865 0.20179619
000160 c5 80 4a 3f 83 23 54 bd 55 01 0d 3f b8 62 09 3f
       0.79102737 -0.05179168 0.5508016 0.5366626
000170 ed 37 31 bf 3f 07 4c 3f 65 a3 1e be 6f 95 3f bf
       -0.6922596 0.79698557 -0.15492018 -0.7483739

863 f4 [48, 1, 1]
000000 5f 49 fc 3e ed fe 14 80 6c ed 72 3f 8e 69 b7 3e
       0.49274728 -1.92816e-39 0.9489353 0.3582272
000010 62 ea 50 3e ed 77 18 3f 14 60 02 bf 29 06 84 bc
       0.2040191 0.5955799 -0.50927854 -0.016116219
000020 89 2b 05 80 a6 12 ef 3d 38 51 03 00 3f 77 54 be
       -4.74795e-40 0.11673479 3.04642e-40 -0.20748614
000030 75 d2 8b 3f 91 7b 82 3c ab 14 ae be 61 c3 20 00
       1.0923601 0.015928062 -0.34000143 3.008825e-39
000040 51 74 64 3d 5c 69 1e 80 d3 4f 25 be 38 a2 3b be
       0.05577499 -2.792861e-39 -0.16143732 -0.183236
000050 20 1c 0d 3f ee 5d 3f be 2c 04 40 3f 02 c3 05 80
       0.5512104 -0.18688175 0.75006366 -5.29133e-40
000060 7f 2a 79 3f ce 7c 2c 3f 4f d0 4f 3f d0 2c fd be
       0.9733047 0.67377937 0.8117723 -0.49448252
000070 97 9d 87 bb b9 4c 2a 3d f4 d3 26 bf 23 0b dd bd
       -0.004138659 0.041577075 -0.65167165 -0.1079314
000080 5c 80 93 3d 12 e3 ea 3e 38 ec 19 bf fa 4b ff be
       0.07202217 0.45876366 -0.60126066 -0.49862653
000090 36 74 af 2b 99 22 25 3f 33 f2 e6 3e f9 c0 ba 3e
       1.2466753e-12 0.64505917 0.45106658 0.3647535
0000a0 ea 21 1e 3d 6f fa be 3d 3a 30 02 3f 93 b4 2c 3d
       0.03860656 0.0932511 0.5085484 0.042164396
0000b0 9c c6 15 bd 85 29 10 80 98 53 64 3f ac b6 3a 3d
       -0.03656636 -1.484262e-39 0.89190054 0.045584366

868 f4 [4]
000000 00 00 80 3f 00 00 80 3f 00 00 00 40 00 00 00 40
       1.0 1.0 2.0 2.0

869 f4 [48, 1, 1]
000000 51 cc c9 be 65 13 96 3c ac 70 79 3f e0 c5 06 bd
       -0.39413694 0.018319795 0.9743755 -0.032903552
000010 8f 87 10 3f 5e 28 15 3c 6a 16 af be 63 81 99 be
       0.56456846 0.009103863 -0.34196788 -0.29981527
000020 16 f6 d7 3e 98 6d 8f 3c 83 9e c0 bc 69 68 04 3d
       0.42179936 0.017508313 -0.023513084 0.032326136
000030 17 91 1a 80 80 20 f9 3e 55 d1 33 3f af 40 21 bf
       -2.439771e-39 0.48657608 0.7024129 -0.62989324
000040 12 7d 06 be 37 25 47 3e 3d 3d ee 3d d3 de 04 3f
       -0.13133648 0.1944779 0.11632774 0.519025
000050 9b 59 7d 3f b2 4a a5 be aa ad 12 3f 74 3d 14 00
       0.9896485 -0.3228355 0.5729624 1.858755e-39
000060 26 a7 62 3f bc 76 de be 9d 17 e6 be 04 70 46 be
       0.885363 -0.43449962 -0.4493989 -0.19378668
000070 01 89 10 be c7 72 a4 3e 08 3d 8c 3c 43 ef 55 bd
       -0.14114763 0.32118818 0.017118946 -0.05223013
000080 3b 4f 68 be 7e 87 0e 00 c0 af 76 3e 99 be 05 3f
       -0.22686474 1.334302e-39 0.24090481 0.52243954
000090 a5 5f a5 be 06 09 d2 3c e9 59 30 3d 56 59 60 bb
       -0.32299533 0.025639068 0.043054495 -0.0034232936
0000a0 21 07 75 be 98 36 2e 3f 48 f7 cb be c8 94 79 be
       -0.239285 0.68052053 -0.39837098 -0.24373162
0000b0 45 be a5 3d a4 01 af bd 19 07 79 3f a6 7d 2e 3d
       0.08092932 -0.08545235 0.97276455 0.042600296

874 f4 [4]
000000 00 00 80 3f 00 00 80 3f 00 00 80 40 00 00 80 40
       1.0 1.0 4.0 4.0

875 f4 [96, 1, 1]
000000 04 8e a0 bd 2e b3 3a 3f 67 9a d1 bc 73 e0 e0 3e
       -0.07839587 0.72929657 -0.02558632 0.4392124
000010 1f 76 05 3d 12 1d c1 bd bd 1a 7d be 7b e9 ab b0
       0.032583352 -0.09429373 -0.24717231 -1.2508247e-09
000020 fd 05 f7 3c 9c be 79 3b f9 d5 a5 3d 1f d5 2f be
       0.030154223 0.0038107997 0.08097453 -0.17171143
000030 6c b0 88 3e 3c 3d a6 3f 8b 98 38 3d 11 cc 96 bc
       0.266971 1.2987437 0.04506735 -0.018407853
000040 ca 5c 8c ba 20 e2 85 3e 19 c8 d7 bd 5e 8e 1f bb
       -0.0010708806 0.26149082 -0.105362125 -0.0024346332
000050 e8 a6 2a be 78 e8 a2 30 5c 8c 8a be b5 ac ff bd
       -0.16665232 1.1853123e-09 -0.2706021 -0.12484113
000060 16 42 af 3d 68 b4 3a 3d 93 d3 19 3d 62 27 1e 3f
       0.08557527 0.045582205 0.03755529 0.61778843
000070 2b af 22 3e 5c b8 a9 bd 00 30 4f 3a 1b 6c 39 be
       0.15887134 -0.08287117 0.0007903576 -0.18107645
000080 7b af 77 be b6 0b cf be 03 e7 b0 3e f5 c9 4b bd
       -0.24188034 -0.40438622 0.34551248 -0.049753148
000090 b5 64 83 bd d9 48 1f bc 4a f8 a1 3c 1e 96 c0 bd
       -0.06415693 -0.009721958 0.019771714 -0.094036326
0000a0 44 a8 16 bd 81 9e 9e bd 70 b6 7d be 74 77 84 3d
       -0.036781564 -0.07745076 -0.24776626 0.064680964
0000b0 6f 1f fb 3d b2 86 53 3e 74 0e 56 be 52 cc 06 33
       0.12261855 0.20656851 -0.20903951 3.1385134e-08
0000c0 02 12 a1 be 4d 97 0d bd 06 35 da be fc dc 21 3d
       -0.3145905 -0.03456812 -0.4261858 0.039517388
0000d0 b9 44 24 3e b8 b0 09 bf ef a7 2f 3e 2a b6 47 bf
       0.1604184 -0.53785276 0.17153905 -0.78012335
0000e0 21 7a 6a 3e 49 d7 b0 bd db c9 0e be ff f1 71 3c
       0.22898151 -0.086348124 -0.13944189 0.014767169
0000f0 e6 a2 12 bf 8c ed 63 3f 34 b7 83 3f 29 8d 46 3f
       -0.57279813 0.8903434 1.0290284 0.77559143
000100 30 91 1d be cd e8 b7 be 4b c5 c8 bd 72 b6 ae 3e
       -0.15387416 -0.359198 -0.09803256 0.3412357
000110 82 c7 1f 3e a3 77 53 3f ac 54 c3 be f5 6c f2 be
       0.1560345 0.82604426 -0.38150537 -0.47348753
000120 05 41 fa bd 14 b4 8e 3f 6b d1 bd be 99 a7 ea bd
       -0.12219433 1.1148705 -0.37073836 -0.11457748
000130 50 2c 6c be ee c2 6a be a7 80 92 bd f0 05 27 3f
       -0.23063779 -0.22925922 -0.07153445 0.65243435
000140 c3 60 37 bf 86 d4 c7 bd 4b c7 0a bf 83 ab 9c be
       -0.7163202 -0.097573325 -0.54210347 -0.30599603
000150 20 f6 be bb 24 76 c3 bc db 31 b3 3d 6b b5 0b bf
       -0.00582768 -0.023860045 0.087497436 -0.54573697
000160 cf 84 07 bf da 23 a2 bd 5b 68 74 bf 9b c8 3b bf
       -0.52937025 -0.079169944 -0.95471734 -0.73352975
000170 68 34 5f be d3 96 8b 3c d3 f5 5a bd 16 fc e6 be
       -0.21797335 0.017039692 -0.053457092 -0.451142

876 f4 [48, 1, 1]
000000 c0 00 18 bf 95 8a ed be 7c 2f c8 3d e1 bc b4 be
       -0.59376144 -0.46394792 0.09774682 -0.35300353
000010 58 42 db 3e f1 91 f3 be 4e 27 7b be b1 bb fe 3d
       0.42824054 -0.47572282 -0.24526712 0.12438143
000020 3d 74 cb be 65 12 b9 be 0a dc 67 3f 1b a2 65 be
       -0.3973712 -0.36146846 0.9057013 -0.2242512
000030 97 e3 1f 3f d8 f7 55 3e 50 6c c8 3e 44 9c 8d be
       0.6245665 0.20895326 0.39145136 -0.27658284
000040 0b 69 13 3f e2 db 59 3f a3 88 08 bf 2f 49 0b bf
       0.5758216 0.8510114 -0.5333349 -0.54408544
000050 01 1d 61 3f 83 1e 1b 3d c8 42 75 3f 68 f3 0a 3f
       0.8793488 0.037870895 0.95805025 0.5427766
000060 cd 99 d3 bd d1 b9 59 3f 35 8b f7 bd 19 ff 2e be
       -0.103320695 0.8504916 -0.120870985 -0.170895
000070 6f 85 81 3f 99 e2 e7 be b1 2b 2c 3f 3d 1b f8 be
       1.0118846 -0.45290068 0.6725417 -0.4845828
000080 62 08 02 3f 6e 49 5d 3e 2b c5 38 3f c1 88 81 3e
       0.5079404 0.21610042 0.72175854 0.25299647
000090 0f 8e a5 be 57 be a4 3b 68 dd db 3d 96 ea 8f 3f
       -0.32334945 0.005027573 0.10735589 1.1243465
0000a0 e2 50 5d 3f 23 f1 67 bf 46 e2 4e 3f 13 0a 91 bd
       0.8645154 -0.9060232 0.80814016 -0.07082
0000b0 69 76 15 3f 97 1d 00 3f e7 18 1f 3f 53 fa 0f 3f
       0.58383805 0.5004515 0.6214737 0.5624134

877 f4 [48, 1, 1]
000000 63 15 86 3f 05 a3 a0 bd d5 55 99 3d 96 8d 4f bf
       1.0475277 -0.078435935 0.07487074 -0.8107542
000010 cf 90 1f 3f 1c 55 96 be ab 21 cd 3d 58 8a 12 be
       0.62330335 -0.29361808 0.10016187 -0.14310586
000020 f1 49 1e 3f f2 41 3f bf a4 8e 21 3e f9 82 22 bf
       0.61831576 -0.7471 0.1577707 -0.634811
000030 ba a6 5c 3d 31 b2 c7 be 94 4d 64 3f 23 34 01 bf
       0.05386994 -0.39003137 0.89180875 -0.5047018
000040 c9 62 e8 3c 68 26 2f bf 7a f0 09 3d b9 53 aa be
       0.028367417 -0.6841798 0.033676602 -0.33267
000050 d5 e3 9d 3e 0a 5e 5f 3c ac 54 64 3e 91 3c cc be
       0.30837885 0.0136332605 0.22297925 -0.39889959
000060 09 60 16 80 6a ea 6e 3f cb 66 0a be 4e 10 bc 3d
       -2.054832e-39 0.9332644 -0.13515775 0.09182797
000070 5b a6 69 be 77 ac a6 3c 71 1c d4 3e ee e9 c9 be
       -0.22817366 0.02034591 0.4142795 -0.39436287
000080 e2 e4 6a 3f a8 01 2c 3f d1 a2 01 3f d2 70 63 be
       0.917555 0.6719003 0.50639063 -0.22211006
000090 82 ca 73 3e 9c b7 48 3f 9c 6a 3f 3f 1e 87 a3 3d
       0.2380772 0.78405166 0.7477205 0.07984756
0000a0 49 ec 30 be 91 ba 41 bf a4 36 2a be 53 20 8c be
       -0.17277636 -0.756753 -0.16622406 -0.2736841
0000b0 f3 e0 4d 3f b8 b2 cc be 63 7f 60 3f 9a 14 a3 3e
       0.8042137 -0.39980102 0.87694377 0.31851655

882 f4 [4]
000000 00 00 80 3f 00 00 80 3f 00 00 00 40 00 00 00 40
       1.0 1.0 2.0 2.0
